notebooks/best_model_pt.pth (torch, 90316 bytes, 9 tensors)

lstm1.weight_ih_l0 f4 [200, 7]
0	0xbd4bbd7c	-0.049741253
1	0xbda20775	-0.079115786
2	0xbd40c7a1	-0.04706538
3	0xbd4d7dcc	-0.050168797
4	0xbd192e13	-0.037397455
5	0xbdb5eb84	-0.08882812
6	0x3cdd1970	0.026989669
7	0x3e0b28f1	0.13589837
8	0x3df0b0f4	0.11752501
9	0x3d9a09ac	0.07521376
10	0xbe0d00af	-0.13769792
11	0xbe10e530	-0.14149928
12	0x3d6bd7db	0.057578903
13	0xbd5bb015	-0.05363472
14	0xbe031f8e	-0.12805006
15	0xbd71f6f4	-0.059073403
16	0xbdca40ed	-0.09875665
17	0xbd1a7d8c	-0.037717387
18	0xbdef1b41	-0.1167512
19	0xbdf00102	-0.11718942
20	0x3ddda38b	0.10822209
21	0x3e1f9e87	0.15587817
22	0x3ba6d380	0.0050911307
23	0x3db38619	0.087658115
24	0xbd818811	-0.06324781
25	0x3dad0f90	0.08450234
26	0x3c1973c9	0.009365984
27	0xbdf4a973	-0.119463824
28	0xbd7aedaf	-0.06126183
29	0xbdd7062f	-0.10499226
30	0x3dbdf162	0.09274556
31	0x3d32e793	0.043677878
32	0xbd4d1ad7	-0.050074425
33	0x3d19aad8	0.037516445
34	0xbb41dd78	-0.0029581469
35	0xbdcc93c5	-0.09989122
36	0xbdc62ecc	-0.096768945
37	0xbd45bd8e	-0.048276477
38	0xbe1c649e	-0.15272757
39	0xbe187158	-0.14886987
40	0xbe09d040	-0.13458347
41	0x3d88ff50	0.06689322
42	0xbd96987f	-0.07353305
43	0x3d1fcbde	0.039012782
44	0x3d97c7ad	0.07411132
45	0xbd5905d9	-0.052984092
46	0x3af22f6e	0.001847727
47	0xbdc7e8d8	-0.09761208
48	0x3e12d043	0.14337258
49	0x3d79b9d5	0.06096824
50	0x3dc9c121	0.098512895
51	0x3de27801	0.11058045
52	0x3dfee18f	0.12445366
53	0xbd356b92	-0.04429204
54	0xbd1a60bb	-0.037689906
55	0x3de50c5d	0.11183999
56	0x3c6a1be3	0.014288875
57	0x3d852047	0.06500297
58	0xbdf71cbc	-0.120660275
59	0x3d4bd89c	0.04976712
60	0xbe18915e	-0.14899203
61	0x3d8df9e6	0.0693243
62	0x3d02ba8a	0.03191618
63	0xbd133fae	-0.0359494
64	0xbdb2fa2e	-0.08739124
65	0x3d8f0272	0.06982888
66	0x3dcc36a3	0.099713586
67	0xbdf6381b	-0.1202242
68	0xba4d38d5	-0.0007828598
69	0x3e0d4716	0.13796648
70	0x3d306b38	0.043071
71	0xbdfc1b48	-0.12309891
72	0x3dab0f72	0.08352555
73	0xbc3025d8	-0.01075121
74	0x3de155f0	0.110027194
75	0xbd836e42	-0.064175144
76	0x3dc86a34	0.09785882
77	0xbd25a5ad	-0.040441204
78	0x3ded7a6a	0.11595614
79	0xbd809258	-0.06277913
80	0xbd66ed26	-0.056378506
81	0xbd8c7adc	-0.06859371
82	0xbe0c5b2d	-0.13706656
83	0x3db5a535	0.08869401
84	0xbc312b5e	-0.010813562
85	0x3dea725b	0.11447593
86	0x3d929653	0.07157578
87	0x3d816662	0.06318356
88	0xbdef8bf9	-0.116966195
89	0x3cebf1a4	0.028801747
90	0x3dcbb705	0.099470176
91	0x3dfefb1a	0.124502376
92	0xbd0d91ed	-0.034562994
93	0x3e1c99b2	0.15293005
94	0x3e1b659e	0.15175483
95	0x3defeb17	0.11714762
96	0x3d6a95c6	0.05727174
97	0x3dddc698	0.108288944
98	0xbd3a998b	-0.045556586
99	0xbdeae5e9	-0.11469633
100	0x3dc55a6b	0.096363865
101	0xbdbe30ea	-0.09286673
102	0xbc5981ee	-0.013275607
103	0xbe100033	-0.14062576
104	0xbe0aca01	-0.13553621
105	0xbded0def	-0.11574923
106	0x3baad473	0.005213314
107	0x3da81f10	0.0820905
108	0xbcb477c8	-0.022029772
109	0xbddb2c0e	-0.10701762
110	0xbd40f13c	-0.04710506
111	0x3d893277	0.066990785
112	0xbdb310f3	-0.08743467
113	0x3b5ff82b	0.003417502
114	0x3e120ba2	0.1426225
115	0x3e012547	0.12611876
116	0xbd0fd3a9	-0.035113964
117	0x3db346f1	0.087537654
118	0xbc8aa0e4	-0.016922422
119	0xbe00ce3f	-0.12578677
120	0xbdf1f52b	-0.1181434
121	0xbd26dd3b	-0.040738326
122	0xbde35bea	-0.111015156
123	0xbd60d1b6	-0.054887496
124	0x3dbcb54f	0.09214269
125	0xbdfcf439	-0.12351269
126	0xbdee3a6a	-0.11632235
127	0xbd239c8a	-0.03994421
128	0xbd19ed7f	-0.03758001
129	0xbddb0fcf	-0.106963746
130	0xbcee50b5	-0.029091218
131	0x3db3eb73	0.08785143
132	0xbd93d9f6	-0.07219307
133	0x3ddeb210	0.108738065
134	0xbd487ca2	-0.048946984
135	0xbe1334e8	-0.14375651
136	0x3c637641	0.013883174
137	0xbe068a09	-0.13138594
138	0x3d878dfe	0.0661888
139	0x3dd34797	0.10316389
140	0xbd9f0341	-0.077642925
141	0x3df156c4	0.11784127
142	0xbc74f511	-0.0149510065
143	0xbdc84794	-0.097792774
144	0xbadd3452	-0.0016876555
145	0x3d964443	0.07337239
146	0xbd36a153	-0.044587445
147	0xbd1dc5a2	-0.038518555
148	0x3d3c4f29	0.04597393
149	0xbd4a2ca7	-0.04935899
150	0xbe00db7c	-0.12583727
151	0xbdc8cd65	-0.09804801
152	0x3cb4546e	0.022012915
153	0x3d294f03	0.041335117
154	0x3d1020f0	0.03518766
155	0xbd964726	-0.07337789
156	0xbdc4e7df	-0.096145384
157	0x3ba8cf56	0.0051516695
158	0xbb2642ca	-0.00253694
159	0x3db02bdb	0.08602115
160	0x3da627c9	0.08113057
161	0xbd671c7a	-0.05642364
162	0xbd5ea33a	-0.054354884
163	0xbdbcf580	-0.09226513
164	0x3ca69bd7	0.020337982
165	0xbde30946	-0.11085753
166	0xbd01ce61	-0.03169096
167	0xbdb9c1a1	-0.09070135
168	0x3beb1624	0.00717427
169	0xbdf573ef	-0.11985003
170	0x3d68f361	0.05687273
171	0xbc362b9f	-0.0111187985
172	0xbe096954	-0.13419086
173	0xbd163968	-0.03667584
174	0xbcfef63a	-0.03112327
175	0xbdee9f09	-0.11651427
176	0x3bc1dfb2	0.005916559
177	0xbdff9a34	-0.12480584
178	0xbdc994df	-0.09842848
179	0xbdc13b52	-0.094351426
180	0xbe150b28	-0.14555037
181	0xbca57191	-0.020195754
182	0x3d304cef	0.04304212
183	0xbd98fc56	-0.07470004
184	0x3dc55fe6	0.09637432
185	0xbc9ff910	-0.019527942
186	0x3c8639ea	0.016385037
187	0x3dba5834	0.09098855
188	0x3d81da99	0.06340522
189	0x3d265292	0.04060609
190	0x3cefacc3	0.029257184
191	0x3db14c16	0.0865709
192	0xbc5a26b7	-0.013314894
193	0x3da4ad79	0.080409
194	0x3d92b424	0.07163265
195	0xbd00407a	-0.03131149
196	0xbd8b6109	-0.06805617
197	0xbdfbd3b7	-0.12296241
198	0x3d5fc5ca	0.054631986
199	0x3e0a5ef5	0.13512786
200	0xbdffd93a	-0.124926046
201	0x3d8bf362	0.06833531
202	0x3c901dff	0.017592428
203	0xbd1c31fd	-0.03813361
204	0xbdab4976	-0.08363621
205	0x3d7ec696	0.062201105
206	0x3e134264	0.14380795
207	0xbddaa612	-0.10676207
208	0x3da0500f	0.0782777
209	0x3de997d2	0.114059106
210	0xbda039db	-0.07823535
211	0xbd7f8e01	-0.062391285
212	0xbd256925	-0.040383477
213	0x3d718b2e	0.058970623
214	0x3dbad30a	0.09122284
215	0x3dd13b44	0.10216382
216	0x3df9f906	0.122057006
217	0x3d044b32	0.032298274
218	0xbdf21b0e	-0.118215665
219	0x3ab41fa3	0.0013742339
220	0x3de03cd6	0.109491035
221	0xbd019a4b	-0.031641286
222	0xbdc871fe	-0.09787367
223	0x3dc0928f	0.09402954
224	0xbdcaff50	-0.09911978
225	0x3dd1f29b	0.102513514
226	0x3d6be5b0	0.057592094
227	0x3cb67793	0.022273814
228	0xbd2fb738	-0.04289934
229	0xbc93fad2	-0.018063936
230	0x3e0a28e3	0.1349216
231	0xbc30a731	-0.010782049
232	0x3ced949e	0.02900153
233	0xbdeca960	-0.11555743
234	0x3dbd0d39	0.09231038
235	0xbd2f6216	-0.04281815
236	0xbd91b8a3	-0.07115295
237	0xbd39bc77	-0.04534575
238	0x3db86509	0.09003646
239	0xbdc097c6	-0.094039485
240	0xbcbb6dcf	-0.02287951
241	0xbca1fff1	-0.019775363
242	0xbd52e285	-0.051485557
243	0x3dc7a8c1	0.09748984
244	0xbcd94d8f	-0.02652624
245	0x3dfd71eb	0.12375244
246	0xbdb0881f	-0.08619713
247	0xbd91e85a	-0.07124396
248	0xbd434063	-0.047668826
249	0xbd7c4980	-0.061593533
250	0xbcb2d18b	-0.021828433
251	0xbd714e48	-0.058912545
252	0xbdab34c3	-0.08359673
253	0x3e0c77c3	0.1371756
254	0xbd1b8450	-0.03796798
255	0xbdef000e	-0.11669932

lstm1.weight_hh_l0 f4 [200, 50]
0	0xbca597de	-0.020214017
1	0x3d16416b	0.03668348
2	0xbdcc26de	-0.09968351
3	0xbd637a2d	-0.055536438
4	0x3d28d40a	0.04121784
5	0x3938e70e	0.00017633682
6	0x3e08d762	0.13363412
7	0x3ddedd5b	0.10882064
8	0x3dcde877	0.10054105
9	0x3e16d168	0.1472832
10	0x3d360cea	0.04444591
11	0x3d98458f	0.07435142
12	0xbd162169	-0.036652956
13	0xbdf1da55	-0.11809222
14	0xbd365a5a	-0.04451976
15	0x3dff6001	0.12469483
16	0xbdca497e	-0.09877299
17	0x3cb130ae	0.021629658
18	0x3dafc2b8	0.085820615
19	0x3d145530	0.036214054
20	0x3da38387	0.07984071
21	0x3d482302	0.04886151
22	0xbc372e2d	-0.011180443
23	0xbd933659	-0.071881
24	0x3d883ba5	0.06652001
25	0x3cc21a4b	0.023694178
26	0x3d927187	0.0715056
27	0xbba1d575	-0.004938776
28	0xbd3b4902	-0.045723923
29	0xbdb44848	-0.08802849
30	0xbdb3f334	-0.08786622
31	0x3d8d2caf	0.06893288
32	0x3d9619d1	0.07329143
33	0xbce73dae	-0.028227653
34	0xbdd41ea5	-0.103574075
35	0x3d4b8202	0.049684532
36	0xbaf3c86f	-0.0018599163
37	0xbd2ce628	-0.04221168
38	0x3c154ed0	0.009113029
39	0x3da39609	0.07987601
40	0xbe16ecb1	-0.14738728
41	0x3d18399d	0.03716432
42	0xb8a353f7	-7.788085e-05
43	0x3d309304	0.043108955
44	0x3dfd29ce	0.12361489
45	0xbd2e71dd	-0.042589057
46	0xbcf49e98	-0.02986078
47	0xbabb7189	-0.0014300804
48	0xbe0341c6	-0.1281806
49	0xbdce8838	-0.100845754
50	0x3e054e75	0.1301821
51	0xbc8c9868	-0.017162517
52	0xbc4470ef	-0.011989816
53	0x3de4690e	0.1115285
54	0xbd163df3	-0.036680173
55	0x3de41b50	0.11138022
56	0xbdb6c156	-0.08923595
57	0x39fdfb4f	0.0004844316
58	0xbdd5400c	-0.104126066
59	0x3e0a04a2	0.1347833
60	0x3dd69f91	0.104796536
61	0x3d80f523	0.06296756
62	0x3d551f5f	0.05203187
63	0xbd9e62cd	-0.077336885
64	0xbdc544aa	-0.09632237
65	0x3daf5c05	0.08562473
66	0x3d9892f3	0.07449903
67	0x3e086437	0.13319479
68	0x3cba52cc	0.022744559
69	0xbe1845f9	-0.14870442
70	0xb9bad4a8	-0.00035635126
71	0xbdbf9392	-0.09354319
72	0x3df96a99	0.12178535
73	0xbd141db4	-0.03616114
74	0xbd28bfb0	-0.041198432
75	0xbd826ab1	-0.06368006
76	0x3b95dd95	0.004573534
77	0xbd833ade	-0.064077124
78	0xbd6200e1	-0.05517662
79	0x3dd5d281	0.10440541
80	0xbdee5c2b	-0.116386734
81	0x3dafec75	0.085900225
82	0xbbf2080b	-0.0073862127
83	0xbce0f872	-0.027462218
84	0xbd5f4e94	-0.054518297
85	0xbd9a61fd	-0.07538221
86	0x3d30b853	0.043144535
87	0xbd921cbe	-0.071343884
88	0x3c09bb3e	0.008406458
89	0xbddfd3bc	-0.10929057
90	0x3c4c178a	0.012456784
91	0x3deccfc2	0.11563064
92	0x3daf7945	0.08568052
93	0xbdc458ae	-0.09587227
94	0x3dc46608	0.095897734
95	0x3d3ab447	0.045582082
96	0x3c3dcad1	0.011584
97	0x3df51804	0.11967471
98	0x3cd07eac	0.025451027
99	0x3dda535a	0.10660429
100	0xbdca7895	-0.098862804
101	0x3dbbfd01	0.09179116
102	0x3d7afaba	0.061274268
103	0x3dfac597	0.122447185
104	0x3cb61d91	0.022230895
105	0xbd12ba78	-0.03582236
106	0x3cd2e2b1	0.02574286
107	0xbda00c34	-0.078148276
108	0x3a5bcd49	0.0008384777
109	0xbc42b9dd	-0.011885134
110	0x3c85469a	0.016269017
111	0x3dfd9c8a	0.12383373
112	0x3cb578e5	0.022152374
113	0xbc15c3f3	-0.009140956
114	0xbde6ccfd	-0.11269567
115	0x3c8d3371	0.017236443
116	0xbddc87d1	-0.107680924
117	0x3df2af42	0.11849834
118	0x3de65dcc	0.11248359
119	0x3dae5c00	0.08513641
120	0x3d93a622	0.07209422
121	0x3dde8604	0.10865405
122	0x3a21d175	0.0006172874
123	0xbc06dfa2	-0.008232029
124	0x3d44560f	0.047933634
125	0x3df5a51e	0.11994384
126	0xbdd3a910	-0.103349805
127	0xbd95466e	-0.07288824
128	0xbdb19638	-0.0867123
129	0xbcea3419	-0.028589295
130	0xbe06c6c2	-0.13161758
131	0xbe0c105e	-0.13678119
132	0xbd87c7ef	-0.06629931
133	0x3d3371f2	0.04380984
134	0xbd1df719	-0.03856573
135	0xbd302909	-0.043007884
136	0xbd995166	-0.07486229
137	0x3ddb966b	0.10722049
138	0xbdb944ae	-0.09046303
139	0xbd634e79	-0.05549476
140	0x3d1c4972	0.03815598
141	0xbc99ec86	-0.018789541
142	0xbd5a3600	-0.053274155
143	0x3df63225	0.12021283
144	0x3df0c75a	0.11756773
145	0x3df9694a	0.121782854
146	0xbd909560	-0.07059741
147	0xbdd4b1bd	-0.103854634
148	0xbd9f79f6	-0.07786934
149	0x3cc46e31	0.023978325
150	0xbdc5ae63	-0.09652402
151	0x3d23bcf7	0.039975133
152	0x3df5146d	0.119667865
153	0xbdf3e118	-0.119081676
154	0x3dea8433	0.11450996
155	0xbd8dfaaf	-0.0693258
156	0x3d51ed37	0.051251616
157	0xbc0527d7	-0.008127174
158	0xbd45d877	-0.04830214
159	0xbde844d9	-0.11341257
160	0x3d5a51d2	0.053300686
161	0xbdc48685	-0.0959597
162	0xbdede45d	-0.116158225
163	0xbe18e99f	-0.1493287
164	0x3d91e52b	0.071237884
165	0x3df33f59	0.11877317
166	0x3dc321a5	0.095279016
167	0x3d715b76	0.058925115
168	0xbe0c7f01	-0.13720323
169	0x3d95d4e3	0.073159955
170	0xbd6f31cf	-0.05839711
171	0xbdef5dad	-0.11687789
172	0xba7cf8e9	-0.00096501276
173	0xbc23f552	-0.010007219
174	0xbd6d3194	-0.05790861
175	0xbe043ff6	-0.12915024
176	0x3dc4dbf6	0.09612267
177	0x3dcc06bb	0.09962221
178	0x3e071796	0.13192591
179	0xbe0a7f70	-0.13525176
180	0x3cb41c32	0.0219861
181	0xbe0a9386	-0.13532838
182	0x3e070715	0.13186295
183	0xbdf008e4	-0.11720446
184	0x3d962480	0.073311806
185	0xbd0ab68c	-0.033865497
186	0xbc3bc8f7	-0.011461488
187	0xbccbdbdf	-0.024885116
188	0x3e03f691	0.12887026
189	0xbd383f71	-0.044982377
190	0x3da62581	0.08112622
191	0xbd83bb5d	-0.06432221
192	0xbde8a169	-0.113589115
193	0xbdd04b0c	-0.10170564
194	0x3dda6dc5	0.10665468
195	0x3dad9dd8	0.08477372
196	0x3d3ad850	0.045616448
197	0xbc0c9843	-0.008581224
198	0xbe09a427	-0.13441525
199	0x3d1dc649	0.038519178
200	0xbd17d71f	-0.03707039
201	0xbddac049	-0.10681207
202	0x3e03b8e5	0.128635
203	0xbe1095ed	-0.14119692
204	0xbdde7d43	-0.108637355
205	0xbddd6397	-0.10810011
206	0x3df94004	0.12170413
207	0xbceda891	-0.029011043
208	0xbe0e1024	-0.13873345
209	0x3df80ed9	0.12112207
210	0x3d53ff66	0.05175724
211	0xbe0a8c45	-0.13530071
212	0x3e1a0ace	0.15043184
213	0xbd603574	-0.054738477
214	0x3d6a211a	0.057160474
215	0xbd38c765	-0.045112032
216	0xbdccd3e0	-0.100013494
217	0x3d022ae6	0.031779192
218	0xbdd26e12	-0.102749005
219	0xbd04a442	-0.03238321
220	0x3d8f7d8c	0.07006368
221	0x3e019c71	0.12657334
222	0xbc8b088f	-0.016971854
223	0x3d0d2266	0.034456633
224	0xbcd7bda9	-0.026335554
225	0x3ddd5cda	0.10808726
226	0x3ddb8b3a	0.10719915
227	0x3d938e4c	0.07204875
228	0x3da40316	0.08008401
229	0xbe0d672d	-0.1380889
230	0x3dc288d0	0.09498751
231	0xbcf279f6	-0.029599171
232	0x3d3508e4	0.044197932
233	0x3c65da87	0.014029152
234	0x3d615e1c	0.05502139
235	0xbd881d1c	-0.06646177
236	0x3d80618b	0.06268605
237	0x3de2d6e6	0.11076145
238	0xbdb9a0b5	-0.090638556
239	0xbc786c5e	-0.0151625555
240	0x3d71b2f8	0.05900857
241	0x3e1799d8	0.1480478
242	0x3d1a135c	0.03761612
243	0x3dad243d	0.084541775
244	0x3dc43b8a	0.09581669
245	0x3db261c6	0.08710055
246	0xbdcb3bc8	-0.09923512
247	0x3d298567	0.041386988
248	0x3e0769f9	0.13224019
249	0xbd63bfea	-0.055602945
250	0xbcf129a0	-0.029438794
251	0x3df3fb74	0.11913195
252	0x3daf7f4b	0.08569201
253	0x3c870416	0.01648144
254	0x3dbd1cb1	0.09233988
255	0x3decdf53	0.11566033

lstm1.bias_ih_l0 f4 [200]
0	0xbdd6b065	-0.10482863
1	0x3d18e142	0.037324198
2	0x3cf0fc1d	0.029417092
3	0x3d06e8ca	0.03293685
4	0x3dc1b49c	0.09458277
5	0xbdb1537a	-0.086585
6	0x3d09ad3a	0.033612467
7	0xbb98b0f2	-0.0046597654
8	0xbe10a30d	-0.14124699
9	0xbc6e247b	-0.014535065
10	0x3c4666df	0.012109487
11	0x3da13b1b	0.078726016
12	0x3dde49dd	0.10853932
13	0xbcbb728a	-0.022881765
14	0x3d90707b	0.07052704
15	0xbc48058d	-0.012208355
16	0xbde34c96	-0.11098592
17	0x3db713d0	0.08939326
18	0x3df5dafe	0.1200466
19	0x3d8f8698	0.070080936
20	0xbdbfb001	-0.09359742
21	0x3e10fef8	0.14159763
22	0xbc3eb695	-0.011640211
23	0xbddd0d8c	-0.107935995
24	0xbd07aaab	-0.033121746
25	0xbdcb7f1c	-0.099363536
26	0xbe03676d	-0.12832423
27	0x3d9f90e9	0.07791311
28	0xbdc1920e	-0.09451686
29	0x3c21b2f9	0.009869331
30	0x3e02c958	0.12772119
31	0x3d88c672	0.066784754
32	0x3dfaae86	0.12240319
33	0x3d43e837	0.04782888
34	0x3dde6ee2	0.10860993
35	0x3dd058c4	0.10173181
36	0x3e15707d	0.14593692
37	0x3d91e847	0.071243815
38	0xbd6bb243	-0.05754305
39	0xbd45ff57	-0.048339214
40	0x3e1bd032	0.15216139
41	0x3dbd4642	0.09241916
42	0xbd9ca2a0	-0.07648206
43	0x3de4328b	0.11142453
44	0xbd82e068	-0.06390458
45	0x3db7eb17	0.08980387
46	0xbe0d0271	-0.13770463
47	0x3d74a044	0.059723154
48	0xbd4c8f8e	-0.049941592
49	0xbde3a158	-0.11114758
50	0xbdaafe90	-0.08349335
51	0xbc16bb1a	-0.009199882
52	0xbb0b94ee	-0.0021298486
53	0xbd6fb53c	-0.058522448
54	0x3d3d5384	0.046222225
55	0xbe0d54c2	-0.13801864
56	0x3d77dc6d	0.06051295
57	0x3d330a0b	0.04371075
58	0x3cc53623	0.024073666
59	0x3d3b54fc	0.045735344
60	0xbddb0459	-0.106941886
61	0xbd60a679	-0.05484626
62	0xbd9266ca	-0.07148512
63	0xbd40eeb6	-0.047102652
64	0x3d18f9f5	0.037347753
65	0x3e1a942b	0.15095584
66	0x3e06cd4e	0.13164255
67	0xbdd55bc1	-0.10417891
68	0xbdcdfecc	-0.10058364
69	0xbe12e9d6	-0.14347014
70	0xbdf5c73e	-0.12000893
71	0x3e102930	0.14078212
72	0x3dfd7987	0.12376695
73	0x3ceedfcf	0.029159455
74	0x3daf7d76	0.08568852
75	0x3dfdb631	0.12388266
76	0x3bc9f23a	0.006162909
77	0x3da110a4	0.07864502
78	0xbdb07b62	-0.086172834
79	0x3ce49389	0.027902381
80	0xbd005ce9	-0.031338606
81	0x3cb98538	0.022646531
82	0xbda4093b	-0.08009573
83	0xbcc052e8	-0.023477033
84	0x3dc2bc9d	0.095086314
85	0x3d13a0a1	0.03604186
86	0xbd3bda15	-0.045862276
87	0xbda43344	-0.08017591
88	0x3cdcbcfe	0.026945587
89	0xbb76b7c2	-0.003764615
90	0xbce3e375	-0.02781842
91	0x3e09350e	0.13399145
92	0x3e1559a0	0.1458497
93	0x3da5eb93	0.08101573
94	0x3cc98813	0.024601018
95	0x3d019ab1	0.031641666
96	0xbdf71d34	-0.12066117
97	0xbe07605a	-0.13220349
98	0xbb16f9d9	-0.0023037104
99	0xbdd6a57c	-0.104807824
100	0x3e01e3be	0.12684533
101	0x3dc188ec	0.09449944
102	0x3e23d7be	0.16000268
103	0xbd7c898a	-0.061654605
104	0xbd14f3cc	-0.036365315
105	0x3db0eb56	0.08638637
106	0x3df45b85	0.119315185
107	0xbd25f1aa	-0.040513672
108	0xbd3990b3	-0.04530401
109	0x3d389c4c	0.04507093
110	0xbc834537	-0.016024215
111	0x3d90e06b	0.07074054
112	0x3db20f58	0.08694333
113	0xbe1e9e60	-0.15490103
114	0xbce84093	-0.028351104
115	0x3c2d7787	0.01058758
116	0x3e0e27b1	0.13882329
117	0xbd230786	-0.039802097
118	0xbdc35d20	-0.095392466
119	0xbdc3f186	-0.09567551
120	0x3cf30531	0.029665561
121	0xbe17ce4b	-0.14824788
122	0x3cd4b768	0.025966361
123	0xbd6ef95e	-0.058343284
124	0x3e05e913	0.13077192
125	0xbda46de8	-0.080287755
126	0x3d344130	0.04400748
127	0x3db9ae26	0.09066419
128	0x3c321023	0.010868105
129	0x3dbdd3de	0.09268926
130	0xbacd550d	-0.0015665606
131	0x3c843d94	0.016142644
132	0x3d830372	0.063971415
133	0xbcafc0c9	-0.021454232
134	0x3de0edcb	0.109828554
135	0xbdfa7a74	-0.12230387
136	0xbc5c05ba	-0.0134291
137	0xbc7c11f2	-0.015385138
138	0xbdc1c28e	-0.094609365
139	0xbdabfb2f	-0.08397519
140	0x3d9b008d	0.075684644
141	0xbd96bdd7	-0.07360428
142	0x3dd11b3d	0.102102734
143	0xbde580b6	-0.1120619
144	0xbccb6441	-0.024828078
145	0xbd963775	-0.07334796
146	0x3d1df9ec	0.038568422
147	0x3dab7a71	0.08372963
148	0x3b812561	0.0039412235
149	0x3dfab420	0.12241387
150	0xbcbcd607	-0.023051275
151	0xbca2fb27	-0.01989515
152	0x3df01b44	0.117239505
153	0x3c99035e	0.018678363
154	0x3d8f01de	0.06982778
155	0xbc6d3d9a	-0.014480019
156	0xbcfc31ef	-0.030785529
157	0x3d90f434	0.07077828
158	0x3dff5000	0.12466431
159	0x3cbd8306	0.023133766
160	0x3df0767a	0.117413476
161	0x3de9b457	0.1141135
162	0x3d8e3f1e	0.069456324
163	0x3e09043b	0.1338052
164	0xbdb94531	-0.090464
165	0x3dbb2e1c	0.09139654
166	0xbe0034ef	-0.12520193
167	0xbcf654d4	-0.030069746
168	0xbd9dae99	-0.076993175
169	0x3bb0d1ab	0.005396088
170	0x3dd84434	0.10559884
171	0x3dc51257	0.09622639
172	0xbd0d3b00	-0.034480095
173	0x3df9ca1b	0.12196752
174	0x3d83c6a7	0.06434374
175	0xbc1bf1b4	-0.009518076
176	0xbe0f78f9	-0.14010991
177	0x3ce15871	0.027507992
178	0x3a1c1f68	0.00059556076
179	0x3cf1b9d8	0.029507563
180	0xbdfc658f	-0.12324058
181	0x3de27518	0.1105749
182	0x3d616c2d	0.055034805
183	0x3dac606f	0.08416831
184	0x3dc98d8d	0.09841452
185	0x3c53bb79	0.012923115
186	0xbd03c78f	-0.032172736
187	0x3c74aa8d	0.014933241
188	0x3dca2ce5	0.09871844
189	0xbd12f538	-0.03587839
190	0x3dbbdb03	0.091726325
191	0xbd2266df	-0.039648887
192	0xbdb5ab94	-0.088706166
193	0xbc37f2a7	-0.011227286
194	0xbd7811a0	-0.060563684
195	0xbdd6ddb8	-0.10491508
196	0xbd747b57	-0.05968794
197	0x3d0b4f14	0.03401096
198	0x3e00b433	0.1256874
199	0x3d33f533	0.043935012

lstm1.bias_hh_l0 f4 [200]
0	0x3e19382e	0.14962837
1	0xbdca2d36	-0.098719046
2	0x3e0165dc	0.12636513
3	0xbdecaf7e	-0.1155691
4	0x3b873519	0.004126203
5	0xbe038095	-0.12842019
6	0x3c21e575	0.009881367
7	0xbdb1a995	-0.08674923
8	0x3d9eef81	0.077605255
9	0xbc8ef877	-0.017452462
10	0xbd0f1b6c	-0.03493826
11	0x3d8fb357	0.07016628
12	0xbc9461b2	-0.018112991
13	0x3dad10b2	0.0845045
14	0xbe1732d9	-0.1476549
15	0x3d738d0d	0.05946069
16	0x3de40842	0.111343876
17	0xbd50023f	-0.050783392
18	0x3e0eb732	0.13937071
19	0xbd191436	-0.03737279
20	0x3e03bdb4	0.12865335
21	0xbd8fefeb	-0.070281826
22	0xbb8f7631	-0.004378103
23	0xbd88be3a	-0.06676908
24	0x3ce34b98	0.027746007
25	0x3d3c3fc0	0.045959234
26	0xbdd4715f	-0.10373186
27	0x3d6e30e3	0.05815209
28	0xbc70b46a	-0.014691452
29	0xbda3c96a	-0.07997401
30	0xbc9359fe	-0.017987248
31	0xbdd49e8a	-0.103818014
32	0xbd9567ae	-0.07295166
33	0xbd946f24	-0.07247761
34	0xbdbafb82	-0.091300026
35	0xbdfa91ee	-0.12234865
36	0x3d5eedcd	0.054426003
37	0xbd618d63	-0.055066478
38	0x3dc8a4ec	0.09797081
39	0x3dcd9eb5	0.100400366
40	0x3de6fe6c	0.11278996
41	0xbd10db45	-0.03536536
42	0x3dcb1026	0.099151894
43	0x3daf64e7	0.085641675
44	0xbdf255e5	-0.11832789
45	0x3d4c0f32	0.04981918
46	0x3dda10e8	0.10647756
47	0x3e0c48d6	0.1369966
48	0x3da539a9	0.080676384
49	0x3e1811d3	0.1485055
50	0xbdad9994	-0.08476558
51	0xbde97626	-0.11399488
52	0x3c3dcefe	0.011584995
53	0x3d097288	0.03355649
54	0xbdc0d275	-0.094151415
55	0x3d13cd8e	0.036084704
56	0x3de8ca91	0.113667615
57	0xbdb32415	-0.087471165
58	0x3dc436c9	0.09580762
59	0xbdf5a154	-0.119936615
60	0x3e0a2537	0.13490759
61	0x3c1e43e8	0.009659745
62	0xbdff206c	-0.12457356
63	0x3de049c6	0.10951571
64	0x3bf15092	0.007364341
65	0xbb9c6482	-0.0047727237
66	0x3e0ee0a0	0.13952875
67	0x3d9220b1	0.07135142
68	0xbd179b94	-0.037013605
69	0xbe0c3106	-0.13690576
70	0xb957333b	-0.00020523083
71	0x3db2675d	0.08711121
72	0xbc5d9c3d	-0.01352602
73	0xbd45189b	-0.04811917
74	0xba9aaf58	-0.0011801524
75	0xbdc18095	-0.09448353
76	0x3dbd1927	0.09233313
77	0x3c0822da	0.0083090905
78	0xbe01c97d	-0.12674518
79	0x3da7969d	0.08183024
80	0x3d53f993	0.051751684
81	0xbe0e5892	-0.13900974
82	0x3d11e27f	0.035616394
83	0x3e002397	0.12513576
84	0xbc304a7c	-0.010759946
85	0x3dfb5fa4	0.122741014
86	0x3df37472	0.118874446
87	0xbdfd3783	-0.12364104
88	0x3e07e3e0	0.13270521
89	0x3d37e91a	0.044900037
90	0x3cc5262b	0.024066051
91	0xbdbdfed4	-0.0927712
92	0x3decf542	0.11570217
93	0xbd7814e0	-0.060566783
94	0x3dc8d618	0.0980646
95	0xbe20a5ee	-0.15688297
96	0xbc33b758	-0.0109690055
97	0x3d61b305	0.055102367
98	0xbd22d3b5	-0.03975268
99	0xbdb57757	-0.08860653
100	0xbcef11f7	-0.029183371
101	0x3d6e33ef	0.058154996
102	0xba278791	-0.00063907454
103	0x3e14003f	0.14453219
104	0xbd4b9c58	-0.049709648
105	0x3d879819	0.06620807
106	0xbd972ecf	-0.07381975
107	0xbcbea522	-0.0232721
108	0xbd920591	-0.07129968
109	0x3d679b70	0.05654472
110	0xbd1bdabb	-0.038050395
111	0xbdc221b8	-0.094790876
112	0xbd8f06ee	-0.069837436
113	0xbdf7fd60	-0.12108874
114	0xbc713567	-0.014722205
115	0xbd21aeaf	-0.039473232
116	0x3e02219f	0.12708138
117	0x3ce0c139	0.027435886
118	0x3cb46653	0.022021448
119	0xbdb589fe	-0.088642105
120	0x3d8058a9	0.062669106
121	0x3c995fad	0.01872238
122	0xbdecdf4a	-0.115660265
123	0x3e1805b5	0.14845927
124	0xbdc39d17	-0.09551447
125	0xbc92ac26	-0.017904352
126	0x3d28c40c	0.04120259
127	0x3e2585e0	0.1616435
128	0x3d7cfc7c	0.061764225
129	0x3dadb83a	0.08482404
130	0x3dd2aa9a	0.10286446
131	0xbe028c82	-0.12748912
132	0x3d62aa77	0.05533835
133	0x3d58db81	0.05294371
134	0xbc1501a6	-0.009094631
135	0x3c9d9561	0.019236268
136	0xbe0ab0a0	-0.1354394
137	0x3de410db	0.111360274
138	0x3c0cf9ff	0.008604526
139	0xbdad8bfd	-0.08473966
140	0xbe2091af	-0.15680574
141	0x3d1d9f9b	0.03848229
142	0x3dc6f9d5	0.097156204
143	0xbd694672	-0.056951948
144	0x3d421a4f	0.04738837
145	0x3de979a3	0.114001535
146	0xbdf42626	-0.11921339
147	0xbcd6deb7	-0.026229246
148	0xbd6f29c7	-0.05838945
149	0x3b5c51ee	0.003361817
150	0xbd0dbdc8	-0.034604818
151	0x3e0a9c3e	0.13536164
152	0x3e1868b2	0.14883688
153	0x3c92fe35	0.017943481
154	0xbdf03995	-0.11729733
155	0xbe0b014d	-0.13574715
156	0x3cb69f23	0.02229268
157	0x3da1abb0	0.07894075
158	0x3d462383	0.04837371
159	0x3d3fd75b	0.04683624
160	0xbdca28b6	-0.09871046
161	0xbdc40099	-0.095704265
162	0xbde66977	-0.112505846
163	0xbdfb0355	-0.12256495
164	0xbd2d34d0	-0.042286694
165	0x3d95e022	0.073181406
166	0xbdab3c78	-0.08361143
167	0xbddef070	-0.108857036
168	0x3dbe9403	0.09305575
169	0xbdd59dda	-0.104304984
170	0x3dfff7e2	0.12498452
171	0xbe004349	-0.12525667
172	0x3da27bfe	0.07933806
173	0x3df094a1	0.11747099
174	0x3dcb5e3a	0.09930082
175	0x3dca8713	0.098890446
176	0x3d0c24fe	0.034214966
177	0x3d18457a	0.037175633
178	0x3c596952	0.013269739
179	0x3e13a732	0.14419249
180	0xbcf9f013	-0.030509984
181	0x3d443fa6	0.047912262
182	0x3d86d343	0.06583264
183	0x3de9d64b	0.11417826
184	0x3e094b39	0.13407601
185	0x3d6897c4	0.05678536
186	0xbc24abb7	-0.010050706
187	0xbdd0d434	-0.101967245
188	0x3d17e2c6	0.037081502
189	0xbde55fa7	-0.11199885
190	0xbca24ae6	-0.019811105
191	0x3d3eb2a7	0.046557095
192	0xbd7cc240	-0.06170869
193	0x3ddb13cc	0.10697135
194	0x3d823408	0.063575804
195	0xbd3f0b14	-0.046641424
196	0xbdd6c5a9	-0.104869194
197	0x3e084363	0.13306956
198	0xbbd08343	-0.006363304
199	0xbdd5233c	-0.10407111

lstm2.weight_ih_l0 f4 [120, 50]
0	0x3e0968b4	0.13418847
1	0xbdaf8798	-0.08570784
2	0xbdfe8a83	-0.12428763
3	0x3de75e73	0.11297312
4	0xbe0da250	-0.13831449
5	0x3d2e3a4c	0.042536065
6	0xbe18c3dd	-0.14918466
7	0x3ddfe310	0.109319806
8	0xbe035c30	-0.12828135
9	0x3d787ab9	0.060663912
10	0xbd062725	-0.032752175
11	0x3e169d1f	0.14708374
12	0x3d54996b	0.051904123
13	0x3c64e5ec	0.013970833
14	0x3e06ebef	0.13175939
15	0xbdd4065a	-0.10352774
16	0xbe21796f	-0.1576898
17	0x3e1a9b60	0.15098333
18	0xbe16b86d	-0.1471879
19	0x3d34b962	0.044122107
20	0x3d1e4dd4	0.03864844
21	0x3de19536	0.11014788
22	0xbe430e16	-0.19048342
23	0xbe2b6f4f	-0.1674168
24	0x3be44559	0.0069662747
25	0x3e31c397	0.17359768
26	0x3e3f93f4	0.18708783
27	0x3e28dfa8	0.16491568
28	0xbe286e71	-0.1644838
29	0x3da6d39f	0.08145832
30	0x3dc17403	0.094459556
31	0x3cc346f1	0.023837538
32	0xbde0c56d	-0.10975156
33	0x3df6d2e2	0.120519415
34	0x3d89f076	0.067353174
35	0xbd734485	-0.059391517
36	0xbd998112	-0.07495321
37	0xbe1a97cf	-0.15096973
38	0xbd29e1f0	-0.041475236
39	0x3d09659c	0.033544168
40	0x3da201c7	0.07910495
41	0x3daa803f	0.08325242
42	0xbe1457ea	-0.14486662
43	0xbe497c10	-0.19676232
44	0x3d98d3ba	0.07462259
45	0xbb7fb9b0	-0.003902059
46	0xbe44ada7	-0.19206868
47	0x3d5c985a	0.05385623
48	0x3c8c070b	0.017093202
49	0xbe01bc87	-0.12669574
50	0x3c789af2	0.015173661
51	0x3d98b98d	0.07457266
52	0xbde64daf	-0.11245286
53	0xbd0f7b99	-0.03502998
54	0x3c92487e	0.017856833
55	0x3d9d76a1	0.07688642
56	0xbd74271d	-0.059607614
57	0xbd84b77b	-0.064803086
58	0x3e2965f0	0.16542792
59	0xbe4d2717	-0.20034443
60	0xbd0818eb	-0.03322689
61	0xbd68adf4	-0.05680652
62	0xbe22b60c	-0.15889758
63	0xbd952cf3	-0.07283964
64	0x3c94866a	0.0181305
65	0x3d1d8401	0.038455967
66	0x3e21f548	0.15816224
67	0xbd99f031	-0.07516516
68	0x3cd721d9	0.026261257
69	0x3e0f01da	0.1396555
70	0xbe429ed4	-0.190059
71	0x3e18f169	0.1493584
72	0x3a815333	0.0009866714
73	0x3e085d02	0.1331673
74	0x3dc277d6	0.09495513
75	0x3e1f390f	0.1554911
76	0x3d6b73ab	0.057483356
77	0x3d995d2e	0.07488476
78	0x3d3118b4	0.04323645
79	0xba521b3c	-0.00080149225
80	0xbd9a21d9	-0.07525987
81	0xbc73a730	-0.014871404
82	0xbe0aa705	-0.13540275
83	0x3c7033a2	0.014660748
84	0xbbed6b55	-0.007245461
85	0xbd9a9dc6	-0.07549624
86	0x3e3e9ec2	0.18615249
87	0xbde4a63f	-0.111645214
88	0x3d73980b	0.05947117
89	0xbddc78ef	-0.10765254
90	0x3e4a5a08	0.19760907
91	0x3e351980	0.17685509
92	0xbde99d50	-0.11406958
93	0xbe22e5b4	-0.15907937
94	0x3e0418f1	0.1290014
95	0xbd79ac03	-0.06095506
96	0x3d7d7600	0.06188011
97	0xbd0df532	-0.034657665
98	0x3e507a05	0.20359047
99	0xbd0eadc3	-0.03483368
100	0xbe24a5dc	-0.16078895
101	0x3ccfae2c	0.025351606
102	0x3cf6a0a1	0.03010589
103	0xbdb028ef	-0.086015575
104	0x3d0ef783	0.034904014
105	0xbd9e1f1d	-0.07720778
106	0xbdcf30c8	-0.10116726
107	0xbd16f491	-0.03685433
108	0x393bf236	0.0001792394
109	0xbdd4b974	-0.10386935
110	0xbd012242	-0.03152681
111	0xbdbdaa3f	-0.092609875
112	0xbdd4d805	-0.10392765
113	0xbdf58b9a	-0.119895175
114	0x3d23ecf5	0.0400209
115	0xbc2ab4a1	-0.010419042
116	0xbe4245ef	-0.1897199
117	0x3deb09fb	0.11476513
118	0xbe0944a6	-0.13405094
119	0x3a8cd1aa	0.0010743637
120	0x3df8e597	0.12153166
121	0xbd2c1f99	-0.04202232
122	0xbdc390de	-0.095491156
123	0x3dc4d663	0.096112035
124	0xbd87fabb	-0.0663962
125	0xbc3d3b93	-0.011549848
126	0xbe48dec3	-0.19616227
127	0xbe3201d5	-0.17383511
128	0xbe1d3750	-0.15353131
129	0xbd894912	-0.0670339
130	0xbdbbcd2c	-0.09169993
131	0xbdea2827	-0.1143344
132	0x3dbab360	0.09116244
133	0x3e341525	0.17586191
134	0x3dc98a73	0.0984086
135	0xbdaf6f95	-0.085662045
136	0xbe12a8ec	-0.14322251
137	0x3e0b354b	0.13594548
138	0xbdb4fa54	-0.08836809
139	0xbda6e4d6	-0.08149116
140	0xbe171773	-0.14755039
141	0xbe06e6fe	-0.13174054
142	0xbe0a7e41	-0.13524725
143	0x3b025826	0.0019888966
144	0x3e5b1d23	0.21397834
145	0x3e1b0cc1	0.15141584
146	0x3d1d58e0	0.038414836
147	0xbd89e4c3	-0.06733086
148	0x3da294e0	0.07938552
149	0xbd9b79e9	-0.07591612
150	0x3d9ccd6c	0.076563686
151	0xbd81f9da	-0.063464835
152	0x3da7a6c9	0.081861086
153	0xbdf3f3e5	-0.119117536
154	0xbbc586cb	-0.0060280315
155	0xbccc4534	-0.024935342
156	0x3e45cd07	0.19316493
157	0xbe2f5d43	-0.1712542
158	0xbe3bcd9e	-0.18340155
159	0xbdd39277	-0.1033067
160	0x3deb0032	0.11474647
161	0x3cbf9954	0.023388542
162	0x3d95aea4	0.07308701
163	0xbe33b30e	-0.17548773
164	0x3e2e3c2c	0.17015141
165	0xbd78caeb	-0.060740393
166	0xbdce7499	-0.10080833
167	0xbe29adca	-0.16570202
168	0xbdb60ebd	-0.0888953
169	0xbc9695df	-0.018382011
170	0x3d85036f	0.064947955
171	0x3d934cec	0.07192406
172	0x3dc1d0fc	0.09463689
173	0x3db41ddd	0.087947585
174	0x3df9d945	0.12199644
175	0x3dd637c0	0.10459852
176	0x3c4514d4	0.012028892
177	0x3e4aee1c	0.19817394
178	0xbc365f29	-0.011131086
179	0x3c4e9148	0.01260788
180	0x3decf345	0.115698375
181	0x3de47cd3	0.11156621
182	0x3e29139f	0.16511391
183	0xbe0ace87	-0.13555346
184	0x3e43eaae	0.19132492
185	0xbe1e2d19	-0.15446891
186	0x3d47564f	0.048666295
187	0x3d5e050d	0.054204036
188	0x3cb74761	0.022372903
189	0xbdcc571c	-0.09977552
190	0x3c414e4b	0.011798452
191	0xbd9a8654	-0.07545152
192	0x3db4311a	0.08798428
193	0x3e1f4367	0.15553056
194	0xbd8cfc85	-0.06884102
195	0xba423b3f	-0.0007409341
196	0x3e0bed7d	0.13664813
197	0x3dc5ca0a	0.096576765
198	0x3db6fed2	0.08935322
199	0x3d9d59f7	0.07683175
200	0x3e021602	0.12703708
201	0xbe072c43	-0.13200478
202	0x3e388d26	0.18022594
203	0xbd01e146	-0.031708978
204	0x3e0d2968	0.13785326
205	0x3d2b2868	0.04178658
206	0x3d20a13a	0.039216258
207	0x3e294dbd	0.16533561
208	0xbde1c761	-0.11024357
209	0x3e31eee1	0.17376281
210	0xbe2883f5	-0.16456588
211	0xbda53dae	-0.08068405
212	0xbddb0e0f	-0.10696041
213	0xbe33ea74	-0.17569906
214	0x3dbe1ba0	0.09282613
215	0x3dfb1358	0.12259549
216	0x3aafbb73	0.0013407305
217	0xbda3db97	-0.08000868
218	0x3b58b612	0.0033067507
219	0xbdb41004	-0.08792117
220	0x3d9164cc	0.070993036
221	0xbe1be4ab	-0.15223949
222	0xbe47b4a5	-0.19502504
223	0x3db3da66	0.087818906
224	0xbe1c1b56	-0.15244803
225	0xbc858235	-0.01629744
226	0x3d8221ac	0.06354079
227	0x3e3b2f87	0.18279849
228	0x3e234c53	0.15947084
229	0x3d9f6c28	0.07784301
230	0x3db592a2	0.088658586
231	0xbde27cd6	-0.11058967
232	0x3d1d2041	0.038360838
233	0x3d0ccc8b	0.034374755
234	0x3d2de04c	0.042450234
235	0xbe0821bf	-0.13294123
236	0x3e15ad27	0.14616834
237	0xbdfb16c9	-0.12260205
238	0xbdcd3971	-0.10020722
239	0xbdc5293a	-0.09627004
240	0xbdbef717	-0.093244724
241	0x3e09c3b4	0.13453561
242	0xbe05d49e	-0.13069388
243	0xbe364767	-0.17800675
244	0xbc4389f8	-0.01193475
245	0xbd401997	-0.046899404
246	0x3c581a68	0.0131898895
247	0xbc80e329	-0.015733318
248	0x3d6acd35	0.057324607
249	0x3e193caf	0.14964555
250	0x3c941e6b	0.01808091
251	0xbdbc21a5	-0.09186105
252	0xbe3b502a	-0.18292299
253	0x3e3a7ff8	0.18212879
254	0x3b95cb27	0.004571337
255	0x3e0cac56	0.13737616

lstm2.weight_hh_l0 f4 [120, 30]
0	0x3d33d61a	0.043905355
1	0x3e583c45	0.21116741
2	0x3e12aa52	0.14322785
3	0x3c0b5825	0.008504902
4	0xbdf9c60c	-0.121959776
5	0x3d496973	0.04917283
6	0xbe04a30c	-0.12952822
7	0xbbc7af94	-0.0060939286
8	0x3d77fa16	0.060541235
9	0x3e39d033	0.18145828
10	0x3ccb512e	0.024818983
11	0x3e17c5c1	0.14821531
12	0x3d89cffe	0.067291245
13	0xbd8aa4b6	-0.06769697
14	0x3e49c742	0.19704917
15	0xbd049149	-0.032365117
16	0x3deadbb3	0.114676856
17	0x3d821bd0	0.06352961
18	0x3d6b5517	0.057454195
19	0xbd767bb1	-0.060176555
20	0x3e131be4	0.14366108
21	0x3cce69c0	0.02519691
22	0x3da48cb5	0.0803465
23	0xbd4263f7	-0.047458615
24	0x3d45d124	0.048295155
25	0xbe0e2d1e	-0.13884398
26	0xbdafa673	-0.085766695
27	0x3dac80ac	0.0842298
28	0x3d16871e	0.03674995
29	0x3d85ed9e	0.065394625
30	0x3e151f22	0.14562657
31	0x3d9e1c1a	0.07720204
32	0x3e2f9e9b	0.17150347
33	0xbe0a09ad	-0.13480254
34	0xbdad007e	-0.084473595
35	0x3d924af5	0.07143203
36	0xbe0b8003	-0.13623051
37	0xbdf3d480	-0.119057655
38	0x3de5c1bd	0.11218593
39	0xbe1ac113	-0.15112714
40	0x3d666765	0.05625095
41	0xbe145f9d	-0.14489599
42	0xbd313345	-0.043261785
43	0x3c98a31c	0.018632464
44	0xbd318f98	-0.043349832
45	0x3d03389a	0.0320364
46	0x3d1e67d9	0.038673256
47	0xbdb60a4c	-0.08888683
48	0x3e41ba99	0.18918838
49	0xbcff98d3	-0.031200802
50	0xbd97cad3	-0.074117325
51	0x3e1b0a53	0.15140657
52	0x3e095010	0.13409448
53	0xbd286b62	-0.041118033
54	0xbdaaf97e	-0.08348368
55	0x3dc88f8e	0.09793006
56	0xbd41f013	-0.047348093
57	0x3d34a758	0.044104904
58	0x3e0b7d5f	0.13622044
59	0xbe005f09	-0.12536253
60	0x3e1a29e0	0.15055037
61	0xbda871d9	-0.0822484
62	0xbdd52397	-0.10407179
63	0x3e1172d9	0.14203967
64	0xbdb3ca6a	-0.08778842
65	0x3e2c4ae7	0.16825448
66	0x3e0a4824	0.13504082
67	0xbd2b1f38	-0.04177782
68	0x3d607f2b	0.054808777
69	0xbd56adc2	-0.052411802
70	0x3e1c452e	0.15260765
71	0x3dd10a1b	0.102070056
72	0xbd210161	-0.039307956
73	0xbc95189c	-0.018200211
74	0xbe23779d	-0.15963598
75	0x3db9ff6c	0.09081921
76	0x3e12651a	0.1429638
77	0x3e1ab165	0.15106733
78	0x3e245d1e	0.16051146
79	0x3dde15f9	0.10844035
80	0xbe36fb63	-0.17869334
81	0xbe1df186	-0.15424165
82	0xbcfd161e	-0.030894335
83	0x3e186e2d	0.14885779
84	0x3c2a8247	0.010407037
85	0x3cb463a7	0.022020174
86	0xbdd45adb	-0.10368892
87	0xbd97e6af	-0.07417046
88	0x3d016b54	0.031596497
89	0xbdece1c3	-0.11566498
90	0x3e17fd8f	0.14842819
91	0x3dcd577e	0.100264534
92	0xbddea166	-0.10870628
93	0x3de323f2	0.110908404
94	0xbe186405	-0.14881904
95	0xbd38fb62	-0.045161612
96	0x3d7a61c8	0.061128408
97	0x3dc018ac	0.09379706
98	0xbd023218	-0.031786054
99	0xbcc45885	-0.02396799
100	0xbd13a8e4	-0.03604974
101	0xbd09d20b	-0.03364758
102	0xbdd152bf	-0.10220861
103	0xbe45aed0	-0.19304967
104	0x3e0a035c	0.13477844
105	0x3e1dcf64	0.15411144
106	0x3da3bc47	0.079948954
107	0xbe153d3f	-0.14574145
108	0x3cbe92cb	0.023263356
109	0xbe33c567	-0.17555772
110	0x3d975abe	0.073903546
111	0xbe1f7fc9	-0.1557609
112	0x3e02853e	0.1274614
113	0x3e0983e5	0.1342922
114	0xbd1d5603	-0.038412105
115	0x3e23f713	0.1601222
116	0xbd701013	-0.05860908
117	0x3d1e015a	0.038575508
118	0xbd8e4dd7	-0.069484405
119	0xbdd45ea0	-0.10369611
120	0xbd91842c	-0.07105288
121	0xbe02736a	-0.1273934
122	0xbe3ffc4f	-0.18748592
123	0xbe28c13b	-0.16479962
124	0xbddbae1a	-0.107265666
125	0xbdb56ed3	-0.08859029
126	0xbd91a9e6	-0.07112484
127	0xbd8acd91	-0.0677749
128	0x3df8c59e	0.121470675
129	0x3d880ed0	0.0664345
130	0x3db37233	0.08762016
131	0xbe352a1c	-0.17691845
132	0x3d91e673	0.07124033
133	0xbc95fcf1	-0.018309088
134	0x3df98309	0.12183196
135	0xbaa62f25	-0.0012678845
136	0x3d14c289	0.036318336
137	0xbe464737	-0.19363104
138	0xbcdd18fe	-0.026989456
139	0x3d606f2d	0.054793525
140	0xbd6bf006	-0.05760195
141	0x3df46c64	0.11934736
142	0x3e2f193e	0.17099473
143	0x3d1c693d	0.0381863
144	0xbbead378	-0.0071663223
145	0xbda38ce4	-0.07985857
146	0xbd3c3062	-0.04594458
147	0xbe196493	-0.14979772
148	0xbdf26a1f	-0.11836647
149	0x3da6ce10	0.08144772
150	0x3e07c22d	0.13257666
151	0x3e4337ec	0.19064301
152	0xbe09888a	-0.13430992
153	0x3e1713e4	0.14753681
154	0x3aea4883	0.0017874393
155	0xbe11c068	-0.14233553
156	0xbda007a5	-0.07813958
157	0xbe424328	-0.1897093
158	0x3df0abf8	0.117515504
159	0xbd217052	-0.039413758
160	0xbe3c8bf1	-0.18412758
161	0x3d9d8f0c	0.076933
162	0xbdae9f52	-0.08526482
163	0xbe50634d	-0.2035038
164	0xbe254d36	-0.16142735
165	0x3c5c7601	0.013455869
166	0x3c765278	0.0150343105
167	0xbda59ced	-0.08086572
168	0x3e0acbb8	0.13554275
169	0x3de9221c	0.11383459
170	0xbe3abf63	-0.1823707
171	0xbdbc2c26	-0.09188108
172	0xbda78d82	-0.08181287
173	0xbe39fca6	-0.18162784
174	0x3dd2129a	0.10257454
175	0x3dbd8441	0.09253741
176	0xbd9cdfd8	-0.07659882
177	0xbd3a671d	-0.045508493
178	0xbe1355f4	-0.14388257
179	0xbdbf07f4	-0.09327689
180	0x3d8ca16f	0.068667285
181	0xbe2421e5	-0.16028555
182	0xbcf605d5	-0.030032078
183	0x3e2cae1f	0.16863297
184	0xbdb08894	-0.086198
185	0x3dbce21d	0.09222815
186	0xbc6c3cd3	-0.0144187985
187	0xbd7451ef	-0.05964845
188	0x3e13022b	0.14356296
189	0x3d270b7f	0.040782448
190	0xbdbafdb7	-0.091304235
191	0x3e1ee822	0.15518239
192	0xbdec8d0f	-0.11550342
193	0x3dcce6f8	0.10004991
194	0xbe5130e0	-0.204288
195	0xbe1309eb	-0.14359252
196	0x3d6e7cc6	0.058224462
197	0x3e37156c	0.17879266
198	0xbd3667fa	-0.044532754
199	0xbd6c422c	-0.057680294
200	0xbe123450	-0.14277768
201	0xbc5532ea	-0.013012627
202	0xbe110b0a	-0.14164367
203	0x3cc31238	0.023812398
204	0xbc8ca36d	-0.017167771
205	0xbe2f052c	-0.17091817
206	0x3e068af9	0.13138951
207	0x3d6dccb9	0.058056567
208	0xbe32b7e8	-0.17452967
209	0xbe1c1fd9	-0.15246524
210	0xbe414028	-0.1887213
211	0x3de9df81	0.11419583
212	0xbe4a2d87	-0.1974393
213	0x3de577ae	0.11204468
214	0x3e203bef	0.15647863
215	0xbe13b714	-0.14425308
216	0x3da365a0	0.07978368
217	0x3d1bc855	0.03803285
218	0xbccb9617	-0.024851842
219	0x3db127cf	0.08650171
220	0x3d4e1f57	0.050322857
221	0xbe20af18	-0.15691793
222	0x3e0bb36f	0.13642667
223	0xbe4d417c	-0.20044512
224	0x3dea39b2	0.11436786
225	0x3cb30b27	0.021855904
226	0xbe03625b	-0.12830488
227	0x3d811ff5	0.063049234
228	0xbd14db82	-0.03634215
229	0xbc6a14fa	-0.014287228
230	0x3db8ba63	0.090199254
231	0xbe0e5886	-0.13900957
232	0xbda0fde3	-0.07860925
233	0x3def957f	0.11698436
234	0xbde8bc7e	-0.11364077
235	0x3bfb46fe	0.007668375
236	0xbb9e9610	-0.004839666
237	0xbe05a518	-0.1305126
238	0xbc3c521a	-0.011494184
239	0x3d9fc227	0.078007035
240	0x3e1a750e	0.15083715
241	0x3ddf8777	0.1091451
242	0x3d159eff	0.036528584
243	0xbdd6633c	-0.10468146
244	0x3def76e5	0.11692599
245	0xbd8c4858	-0.06849736
246	0x3d1a1a4c	0.037622735
247	0x3dcf3980	0.10118389
248	0xbd4905af	-0.049077686
249	0x3e015027	0.12628232
250	0x3dac53ed	0.08414445
251	0x3dadb2ce	0.0848137
252	0xbe481d7e	-0.195425
253	0x3c7135a5	0.0147222625
254	0x3e4b6291	0.19861819
255	0x3e221e3b	0.15831845

lstm2.bias_ih_l0 f4 [120]
0	0x3ded9e1d	0.11602423
1	0xbd940ec9	-0.072293825
2	0xbda82c34	-0.08211556
3	0x3da304e4	0.07959917
4	0x3d602ad3	0.05472834
5	0x3de8c4a9	0.11365635
6	0x3da06980	0.078326225
7	0x3dde44f8	0.108529985
8	0x3e3a99fe	0.18222806
9	0x3e1917ae	0.1495044
10	0x3c9c0a74	0.019047953
11	0x3d738993	0.059457373
12	0xbdd99d72	-0.106257334
13	0x3d9b05f9	0.075694986
14	0x3b342dd4	0.0027493136
15	0xbd983f08	-0.07433897
16	0xbd8a80c3	-0.067628406
17	0xbe029cae	-0.12755081
18	0xbdd13fb5	-0.10217229
19	0xbdb9c3ea	-0.09070571
20	0xbdd3acef	-0.10335719
21	0xbd41f46f	-0.04735225
22	0x3e1d80e2	0.15381196
23	0xbde7b1a9	-0.11313183
24	0x3d34218b	0.0439773
25	0x3e0a82f9	0.13526525
26	0x3cc473ad	0.02398094
27	0x3c20d78e	0.009817017
28	0x3e247795	0.16061242
29	0x3da2ecf5	0.07955352
30	0x3cd03478	0.025415644
31	0xbe042dba	-0.12908068
32	0xbd6c2546	-0.057652734
33	0x3db98bca	0.09059866
34	0xbdffe432	-0.12494697
35	0x3d9b23a7	0.075751595
36	0x3d62637c	0.055270657
37	0x3c9f64e5	0.01945729
38	0x3e4092d1	0.18806006
39	0x3db24897	0.08705252
40	0x3deeb91f	0.11656403
41	0x3e437ab3	0.19089775
42	0xbc586a4f	-0.01320894
43	0xbd9bb7dc	-0.07603428
44	0xbdb3b530	-0.08774793
45	0xbdb3cf21	-0.08779741
46	0xbcb8f035	-0.022575477
47	0x3ddb6521	0.10712648
48	0x3e34017f	0.17578696
49	0x3d299da6	0.04141011
50	0x3dc2642a	0.09491761
51	0xbe4bc7a8	-0.19900382
52	0x3df0e7f9	0.11762995
53	0x3dd693cc	0.10477409
54	0xbe163ebc	-0.14672369
55	0xbe2c3b80	-0.16819572
56	0x3e2f1808	0.17099011
57	0xbdbe852a	-0.09302743
58	0xbdcc6eca	-0.09982069
59	0x3c9c9dc3	0.019118195
60	0xbe524b74	-0.20536596
61	0x3e05f47a	0.13081542
62	0xbd0884e3	-0.033329856
63	0xbd0c5be0	-0.034267306
64	0xbe18325d	-0.14862962
65	0xbe0453d5	-0.12922604
66	0xbdf18884	-0.117936164
67	0xbe133d05	-0.14378746
68	0x3da48e05	0.080349006
69	0x3e38603d	0.18005462
70	0xbdb8972f	-0.09013211
71	0xbd229144	-0.039689317
72	0xbde585fb	-0.11207195
73	0x3d130eb9	0.035902712
74	0x3e4dc24e	0.20093653
75	0xbd84f059	-0.06491155
76	0x3d936a50	0.07198012
77	0xbd24b137	-0.040208068
78	0x3dbbc0fa	0.09167667
79	0x3dfb5e33	0.122738265
80	0x3d868d8e	0.06569968
81	0x3bcfac2b	0.0063376627
82	0x3db99856	0.09062259
83	0x3e1d7bf5	0.15379317
84	0xbccb5275	-0.024819592
85	0x3c834793	0.01602534
86	0x3e2cbaf8	0.16868198
87	0x3dc46318	0.09589213
88	0xbe14f0fe	-0.14545056
89	0xbd901591	-0.070353635
90	0x3d2295b3	0.039693546
91	0xbd6d6241	-0.05795503
92	0xbe0e1beb	-0.13877837
93	0x3e1f55be	0.15560052
94	0x3e4d1a37	0.20029531
95	0x3e27655d	0.16347261
96	0xbe288378	-0.16456401
97	0xbdc40769	-0.09571726
98	0x3d920e54	0.07131639
99	0x3e4960e4	0.19665867
100	0xbc218b44	-0.009859864
101	0xbdcc41ea	-0.099735096
102	0x3e47f52f	0.19527124
103	0x3d02b3a9	0.03190962
104	0xbda8971f	-0.08231949
105	0x3e2c3158	0.16815698
106	0xbcdff9e3	-0.027340835
107	0x3e23e954	0.16006976
108	0xba46e5b3	-0.00075873284
109	0xbd89b0b0	-0.067231536
110	0xbd281ba1	-0.041041974
111	0xbe3d20f3	-0.184696
112	0x3d9719ba	0.07377954
113	0xbd53ca91	-0.051706854
114	0x3d67f0d0	0.05662614
115	0xbccec8f2	-0.025242303
116	0xbe028386	-0.12745485
117	0xbbe9cbad	-0.0071348757
118	0x3c02a2ec	0.007973414
119	0xbe0ada65	-0.13559873

lstm2.bias_hh_l0 f4 [120]
0	0x3e4bb88d	0.1989462
1	0x3c734adb	0.01484939
2	0x3d2d0ce9	0.04224864
3	0x3c9203c1	0.017824056
4	0x3d7103e7	0.058841612
5	0xbe19d898	-0.1502403
6	0x3da42820	0.08015466
7	0xbca6a54d	-0.020342493
8	0xbdbbad0a	-0.09163864
9	0x3e0d63f5	0.13807662
10	0xbd22cf43	-0.03974844
11	0x3e3c4644	0.18386179
12	0xbdacd7c4	-0.084395915
13	0xbd812e8e	-0.06307708
14	0x39c020a2	0.00036645407
15	0xbe05b0ba	-0.13055697
16	0x3d6468c2	0.055763967
17	0xbd9652b9	-0.07339997
18	0xbded4fad	-0.115874626
19	0xbdaee002	-0.0853882
20	0xbc765cdb	-0.015036787
21	0xbde9e466	-0.11420517
22	0xbe1e8eeb	-0.15484206
23	0x3d2db4be	0.042408697
24	0x3e08c0ed	0.13354845
25	0xbd8df3da	-0.069312766
26	0xbd261c4d	-0.040554333
27	0x3e3d56f7	0.18490206
28	0xbd94f419	-0.072731204
29	0x3d39731c	0.045275792
30	0x3d8761de	0.066104636
31	0xbccb7463	-0.024835771
32	0x3d553954	0.052056625
33	0x3dbcf60a	0.09226616
34	0x3d90152a	0.07035287
35	0xbde70fdf	-0.11282324
36	0xbdd4f2c0	-0.103978634
37	0x3e3aaf73	0.18230991
38	0x3e2e2d63	0.17009501
39	0x3c763e76	0.01502954
40	0x3e156343	0.14588647
41	0x3d936faf	0.07199036
42	0xbd0f9173	-0.03505082
43	0xbdb30c89	-0.08742625
44	0xbd816ce6	-0.06319599
45	0x3db2612a	0.08709939
46	0xbe2aa744	-0.1666537
47	0xbdcc2da9	-0.099696465
48	0x3dd74a55	0.105122246
49	0x3df4a62d	0.11945758
50	0xbdada23a	-0.08478208
51	0x3cb0ab8e	0.021566179
52	0xbe3fffa5	-0.18749864
53	0x3da4a42c	0.08039126
54	0x3e3964db	0.1810488
55	0xbcce62e3	-0.025193637
56	0x3d1e8e54	0.038709953
57	0x3e1b7f21	0.15185215
58	0xbdd01460	-0.10160136
59	0x3d2d24ac	0.0422713
60	0xbd7559bb	-0.059900027
61	0x3dc6cac5	0.09706644
62	0x3d110b62	0.035411246
63	0xbe306654	-0.17226535
64	0xbe4041c1	-0.18775083
65	0xbe176e41	-0.14788152
66	0x3de2421e	0.11047767
67	0xbdac5f48	-0.08416611
68	0x3d5645e7	0.052312758
69	0x3e1581d9	0.14600314
70	0xbb63d06a	-0.0034761676
71	0xbe273027	-0.16326962
72	0xbd6fc84d	-0.05854063
73	0xbdfb6f4e	-0.12277089
74	0x3e52a92e	0.2057235
75	0xbe2cd260	-0.16877127
76	0xbd184f52	-0.03718502
77	0xbe05d9df	-0.13071392
78	0xbdb0cd9a	-0.086329654
79	0xbe15b868	-0.14621127
80	0xbbff6f1e	-0.0077952286
81	0x3d9fb54f	0.07798254
82	0x3daf9712	0.08573736
83	0xbe01351d	-0.12617917
84	0xbd9efe40	-0.07763338
85	0x3d24ab17	0.040202226
86	0x3dfd4427	0.12366515
87	0xbe226dd3	-0.15862207
88	0x3d29b947	0.04143646
89	0x3e10c116	0.14136156
90	0x3e1adcf5	0.15123351
91	0xbe1b34cc	-0.15156859
92	0xbe26881e	-0.16262862
93	0x3df11236	0.117710516
94	0x3d4296d9	0.04750714
95	0x3ca17b04	0.019711979
96	0xbda57ab1	-0.08080042
97	0xbd23f274	-0.040026143
98	0x3deaeeb9	0.11471314
99	0x3e3e052e	0.18556663
100	0xbd35a62f	-0.04434794
101	0x3df392f0	0.118932605
102	0xbe182e65	-0.14861448
103	0x3e088735	0.13332827
104	0x3e1ec5f1	0.15505196
105	0xbe191e8e	-0.14953062
106	0x3de6ac85	0.11263374
107	0xbde2bb76	-0.110709116
108	0x3b85e630	0.0040862784
109	0xbe2e07b8	-0.16995132
110	0xbd8d67bf	-0.069045536
111	0x3d42aa48	0.047525674
112	0xbd730a30	-0.059335887
113	0x3da79357	0.081824
114	0x3e4a4e43	0.19756417
115	0x3dde07ab	0.10841306
116	0x3d1a7a04	0.03771402
117	0xbd6e511b	-0.058182817
118	0x3d6aa7f5	0.057289083
119	0x3dab4a49	0.08363778

fc.weight f4 [1, 30]
0	0xbe4ad2da	-0.19806996
1	0xbcc34b3f	-0.023839591
2	0x3c8b0274	0.016968943
3	0xbe42605c	-0.1898207
4	0xbd30ec3f	-0.04319405
5	0xbd26868c	-0.040655658
6	0xbd53e55b	-0.051732402
7	0xbdf7b911	-0.120958455
8	0x3e485873	0.1956499
9	0x3dbd51fa	0.092441514
10	0x3e00c2f4	0.12574369
11	0xbe096704	-0.13418204
12	0xbdfbdd61	-0.12298084
13	0x3c2ae3dd	0.010430303
14	0x3cd0e26a	0.025498588
15	0xbe04970e	-0.12948248
16	0x3e0f0ba5	0.13969286
17	0xbcc57a0d	-0.02410605
18	0xbe1d5034	-0.15362626
19	0xbd827641	-0.063702114
20	0x3dc8d9f2	0.09807195
21	0xbe235af8	-0.1595267
22	0xbdc2aa7b	-0.09505173
23	0x3dee29b8	0.11629051
24	0xbe42440e	-0.18971273
25	0x3d63e9ad	0.055642772
26	0x3da7a841	0.08186389
27	0xbe2f8c25	-0.17143305
28	0x3e278902	0.16360858
29	0x3e0e682f	0.1390693
